…
I0830 15:48:09.036861 29406 net.cpp:347] The NetState phase (0) differed from the phase (1) specified by a rule in layer accuracy
I0830 15:48:09.036972 29406 net.cpp:62] Initializing net from parameters: 
name: "CIFAR10_full"
state {
  phase: TRAIN
  level: 0
  stage: ""
}
layer {
  name: "cifar"
  type: "Data"
  top: "data"
  top: "label"
  include {
    phase: TRAIN
  }
  transform_param {
    mean_file: "/home/Dataset/Cifar10/mean.binaryproto-old"
  }
  data_param {
    source: "/home/Dataset/Cifar10/cifar10_train_lmdb"
    batch_size: 32
    backend: LMDB
  }
}
layer {
  name: "conv1"
  type: "Convolution"
  bottom: "data"
  top: "conv1"
  param {
    lr_mult: 1
  }
  param {
    lr_mult: 2
  }
  convolution_param {
    num_output: 32
    pad: 2
    kernel_size: 5
    stride: 1
    weight_filler {
      type: "gaussian"
      std: 0.0001
    }
    bias_filler {
      type: "constant"
    }
  }
  prune_param {
    prune_ratio: 0.464
    prune_ratio_step: 0.464
  }
}
layer {
  name: "pool1"
  type: "Pooling"
  bottom: "conv1"
  top: "pool1"
  pooling_param {
    pool: MAX
    kernel_size: 3
    stride: 2
  }
}
layer {
  name: "relu1"
  type: "ReLU"
  bottom: "pool1"
  top: "pool1"
}
layer {
  name: "norm1"
  type: "LRN"
  bottom: "pool1"
  top: "norm1"
  lrn_param {
    local_size: 3
    alpha: 5e-05
    beta: 0.75
    norm_region: WITHIN_CHANNEL
  }
}
layer {
  name: "conv2"
  type: "Convolution"
  bottom: "norm1"
  top: "conv2"
  param {
    lr_mult: 1
  }
  param {
    lr_mult: 2
  }
  convolution_param {
    num_output: 32
    pad: 2
    kernel_size: 5
    stride: 1
    weight_filler {
      type: "gaussian"
      std: 0.01
    }
    bias_filler {
      type: "constant"
    }
  }
  prune_param {
    prune_ratio: 0.5457
    prune_ratio_step: 0.5457
  }
}
layer {
  name: "relu2"
  type: "ReLU"
  bottom: "conv2"
  top: "conv2"
}
layer {
  name: "pool2"
  type: "Pooling"
  bottom: "conv2"
  top: "pool2"
  pooling_param {
    pool: AVE
    kernel_size: 3
    stride: 2
  }
}
layer {
  name: "norm2"
  type: "LRN"
  bottom: "pool2"
  top: "norm2"
  lrn_param {
    local_size: 3
    alpha: 5e-05
    beta: 0.75
    norm_region: WITHIN_CHANNEL
  }
}
layer {
  name: "conv3"
  type: "Convolution"
  bottom: "norm2"
  top: "conv3"
  convolution_param {
    num_output: 64
    pad: 2
    kernel_size: 5
    stride: 1
    weight_filler {
      type: "gaussian"
      std: 0.01
    }
    bias_filler {
      type: "constant"
    }
  }
  prune_param {
    prune_ratio: 0.4357
    prune_ratio_step: 0.4357
  }
}
layer {
  name: "relu3"
  type: "ReLU"
  bottom: "conv3"
  top: "conv3"
}
layer {
  name: "pool3"
  type: "Pooling"
  bottom: "conv3"
  top: "pool3"
  pooling_param {
    pool: AVE
    kernel_size: 3
    stride: 2
  }
}
layer {
  name: "drop1"
  type: "Dropout"
  bottom: "pool3"
  top: "pool3"
  dropout_param {
    dropout_ratio: 0.1
  }
}
layer {
  name: "ip1"
  type: "InnerProduct"
  bottom: "pool3"
  top: "ip1"
  param {
    lr_mult: 1
    decay_mult: 250
  }
  param {
    lr_mult: 2
    decay_mult: 0
  }
  inner_product_param {
    num_output: 10
    weight_filler {
      type: "gaussian"
      std: 0.01
    }
    bias_filler {
      type: "constant"
    }
  }
}
layer {
  name: "loss"
  type: "SoftmaxWithLoss"
  bottom: "ip1"
  bottom: "label"
  top: "loss"
}
I0830 15:48:09.037080 29406 layer_factory.hpp:77] Creating layer cifar
I0830 15:48:09.037519 29406 net.cpp:107] Creating Layer cifar
I0830 15:48:09.037533 29406 net.cpp:433] cifar -> data
I0830 15:48:09.037559 29406 net.cpp:433] cifar -> label
I0830 15:48:09.037585 29406 data_transformer.cpp:25] Loading mean file from: /home/Dataset/Cifar10/mean.binaryproto-old
I0830 15:48:09.037641 29406 io.cpp:64] Read Proto From Binary File: '/home/Dataset/Cifar10/mean.binaryproto-old', suspend for 2 seconds..
I0830 15:48:09.039018 29417 db_lmdb.cpp:35] Opened lmdb /home/Dataset/Cifar10/cifar10_train_lmdb
I0830 15:48:09.077042 29406 data_layer.cpp:41] output data size: 32,3,32,32
I0830 15:48:09.080245 29406 net.cpp:157] Setting up cifar
I0830 15:48:09.080293 29406 net.cpp:164] Top shape: 32 3 32 32 (98304)
I0830 15:48:09.080308 29406 net.cpp:164] Top shape: 32 (32)
I0830 15:48:09.080317 29406 net.cpp:190] Memory required for data: 393344
I0830 15:48:09.080330 29406 layer_factory.hpp:77] Creating layer conv1
I0830 15:48:09.080364 29406 net.cpp:107] Creating Layer conv1
I0830 15:48:09.080376 29406 net.cpp:459] conv1 <- data
I0830 15:48:09.080396 29406 net.cpp:433] conv1 -> conv1
I0830 15:48:09.081517 29406 layer.cpp:375] New learnable layer registered: conv1. Its layer index: 0
I0830 15:48:09.081576 29406 layer.cpp:403] Pruning setup done: conv1
I0830 15:48:09.904305 29406 net.cpp:157] Setting up conv1
I0830 15:48:09.904343 29406 net.cpp:164] Top shape: 32 32 32 32 (1048576)
I0830 15:48:09.904357 29406 net.cpp:190] Memory required for data: 4587648
I0830 15:48:09.904374 29406 layer_factory.hpp:77] Creating layer pool1
I0830 15:48:09.904388 29406 net.cpp:107] Creating Layer pool1
I0830 15:48:09.904393 29406 net.cpp:459] pool1 <- conv1
I0830 15:48:09.904400 29406 net.cpp:433] pool1 -> pool1
I0830 15:48:09.904453 29406 net.cpp:157] Setting up pool1
I0830 15:48:09.904460 29406 net.cpp:164] Top shape: 32 32 16 16 (262144)
I0830 15:48:09.904464 29406 net.cpp:190] Memory required for data: 5636224
I0830 15:48:09.904469 29406 layer_factory.hpp:77] Creating layer relu1
I0830 15:48:09.904474 29406 net.cpp:107] Creating Layer relu1
I0830 15:48:09.904479 29406 net.cpp:459] relu1 <- pool1
I0830 15:48:09.904484 29406 net.cpp:420] relu1 -> pool1 (in-place)
I0830 15:48:09.904670 29406 net.cpp:157] Setting up relu1
I0830 15:48:09.904680 29406 net.cpp:164] Top shape: 32 32 16 16 (262144)
I0830 15:48:09.904683 29406 net.cpp:190] Memory required for data: 6684800
I0830 15:48:09.904688 29406 layer_factory.hpp:77] Creating layer norm1
I0830 15:48:09.904701 29406 net.cpp:107] Creating Layer norm1
I0830 15:48:09.904706 29406 net.cpp:459] norm1 <- pool1
I0830 15:48:09.904711 29406 net.cpp:433] norm1 -> norm1
I0830 15:48:09.905256 29406 net.cpp:157] Setting up norm1
I0830 15:48:09.905270 29406 net.cpp:164] Top shape: 32 32 16 16 (262144)
I0830 15:48:09.905275 29406 net.cpp:190] Memory required for data: 7733376
I0830 15:48:09.905279 29406 layer_factory.hpp:77] Creating layer conv2
I0830 15:48:09.905293 29406 net.cpp:107] Creating Layer conv2
I0830 15:48:09.905297 29406 net.cpp:459] conv2 <- norm1
I0830 15:48:09.905303 29406 net.cpp:433] conv2 -> conv2
I0830 15:48:09.907610 29406 layer.cpp:375] New learnable layer registered: conv2. Its layer index: 1
I0830 15:48:09.907739 29406 layer.cpp:403] Pruning setup done: conv2
I0830 15:48:09.908602 29406 net.cpp:157] Setting up conv2
I0830 15:48:09.908617 29406 net.cpp:164] Top shape: 32 32 16 16 (262144)
I0830 15:48:09.908622 29406 net.cpp:190] Memory required for data: 8781952
I0830 15:48:09.908632 29406 layer_factory.hpp:77] Creating layer relu2
I0830 15:48:09.908644 29406 net.cpp:107] Creating Layer relu2
I0830 15:48:09.908661 29406 net.cpp:459] relu2 <- conv2
I0830 15:48:09.908668 29406 net.cpp:420] relu2 -> conv2 (in-place)
I0830 15:48:09.909106 29406 net.cpp:157] Setting up relu2
I0830 15:48:09.909121 29406 net.cpp:164] Top shape: 32 32 16 16 (262144)
I0830 15:48:09.909124 29406 net.cpp:190] Memory required for data: 9830528
I0830 15:48:09.909129 29406 layer_factory.hpp:77] Creating layer pool2
I0830 15:48:09.909137 29406 net.cpp:107] Creating Layer pool2
I0830 15:48:09.909140 29406 net.cpp:459] pool2 <- conv2
I0830 15:48:09.909145 29406 net.cpp:433] pool2 -> pool2
I0830 15:48:09.909327 29406 net.cpp:157] Setting up pool2
I0830 15:48:09.909337 29406 net.cpp:164] Top shape: 32 32 8 8 (65536)
I0830 15:48:09.909340 29406 net.cpp:190] Memory required for data: 10092672
I0830 15:48:09.909344 29406 layer_factory.hpp:77] Creating layer norm2
I0830 15:48:09.909353 29406 net.cpp:107] Creating Layer norm2
I0830 15:48:09.909358 29406 net.cpp:459] norm2 <- pool2
I0830 15:48:09.909363 29406 net.cpp:433] norm2 -> norm2
I0830 15:48:09.909606 29406 net.cpp:157] Setting up norm2
I0830 15:48:09.909616 29406 net.cpp:164] Top shape: 32 32 8 8 (65536)
I0830 15:48:09.909621 29406 net.cpp:190] Memory required for data: 10354816
I0830 15:48:09.909624 29406 layer_factory.hpp:77] Creating layer conv3
I0830 15:48:09.909634 29406 net.cpp:107] Creating Layer conv3
I0830 15:48:09.909638 29406 net.cpp:459] conv3 <- norm2
I0830 15:48:09.909644 29406 net.cpp:433] conv3 -> conv3
I0830 15:48:09.911512 29406 layer.cpp:375] New learnable layer registered: conv3. Its layer index: 2
I0830 15:48:09.911682 29406 layer.cpp:403] Pruning setup done: conv3
I0830 15:48:09.912816 29406 net.cpp:157] Setting up conv3
I0830 15:48:09.912832 29406 net.cpp:164] Top shape: 32 64 8 8 (131072)
I0830 15:48:09.912837 29406 net.cpp:190] Memory required for data: 10879104
I0830 15:48:09.912847 29406 layer_factory.hpp:77] Creating layer relu3
I0830 15:48:09.912853 29406 net.cpp:107] Creating Layer relu3
I0830 15:48:09.912858 29406 net.cpp:459] relu3 <- conv3
I0830 15:48:09.912863 29406 net.cpp:420] relu3 -> conv3 (in-place)
I0830 15:48:09.913296 29406 net.cpp:157] Setting up relu3
I0830 15:48:09.913311 29406 net.cpp:164] Top shape: 32 64 8 8 (131072)
I0830 15:48:09.913316 29406 net.cpp:190] Memory required for data: 11403392
I0830 15:48:09.913319 29406 layer_factory.hpp:77] Creating layer pool3
I0830 15:48:09.913326 29406 net.cpp:107] Creating Layer pool3
I0830 15:48:09.913331 29406 net.cpp:459] pool3 <- conv3
I0830 15:48:09.913336 29406 net.cpp:433] pool3 -> pool3
I0830 15:48:09.913517 29406 net.cpp:157] Setting up pool3
I0830 15:48:09.913527 29406 net.cpp:164] Top shape: 32 64 4 4 (32768)
I0830 15:48:09.913532 29406 net.cpp:190] Memory required for data: 11534464
I0830 15:48:09.913535 29406 layer_factory.hpp:77] Creating layer drop1
I0830 15:48:09.913543 29406 net.cpp:107] Creating Layer drop1
I0830 15:48:09.913547 29406 net.cpp:459] drop1 <- pool3
I0830 15:48:09.913552 29406 net.cpp:420] drop1 -> pool3 (in-place)
I0830 15:48:09.913578 29406 net.cpp:157] Setting up drop1
I0830 15:48:09.913583 29406 net.cpp:164] Top shape: 32 64 4 4 (32768)
I0830 15:48:09.913588 29406 net.cpp:190] Memory required for data: 11665536
I0830 15:48:09.913590 29406 layer_factory.hpp:77] Creating layer ip1
I0830 15:48:09.913601 29406 net.cpp:107] Creating Layer ip1
I0830 15:48:09.913604 29406 net.cpp:459] ip1 <- pool3
I0830 15:48:09.913609 29406 net.cpp:433] ip1 -> ip1
I0830 15:48:09.915179 29406 layer.cpp:375] New learnable layer registered: ip1. Its layer index: 3
I0830 15:48:09.915316 29406 layer.cpp:403] Pruning setup done: ip1
I0830 15:48:09.915366 29406 net.cpp:157] Setting up ip1
I0830 15:48:09.915374 29406 net.cpp:164] Top shape: 32 10 (320)
I0830 15:48:09.915379 29406 net.cpp:190] Memory required for data: 11666816
I0830 15:48:09.915385 29406 layer_factory.hpp:77] Creating layer loss
I0830 15:48:09.915398 29406 net.cpp:107] Creating Layer loss
I0830 15:48:09.915402 29406 net.cpp:459] loss <- ip1
I0830 15:48:09.915411 29406 net.cpp:459] loss <- label
I0830 15:48:09.915424 29406 net.cpp:433] loss -> loss
I0830 15:48:09.915441 29406 layer_factory.hpp:77] Creating layer loss
…
I0830 15:48:09.916205 29406 solver.cpp:241] Creating test net (#0) specified by net file: /home2/wanghuan/Scripts/Python/PCA_analysis/MyProject/train_val.prototxt
I0830 15:48:09.916239 29406 net.cpp:347] The NetState phase (1) differed from the phase (0) specified by a rule in layer cifar
I0830 15:48:09.916354 29406 net.cpp:62] Initializing net from parameters: 
name: "CIFAR10_full"
state {
  phase: TEST
}
layer {
  name: "cifar"
  type: "Data"
  top: "data"
  top: "label"
  include {
    phase: TEST
  }
  transform_param {
    mean_file: "/home/Dataset/Cifar10/mean.binaryproto-old"
  }
  data_param {
    source: "/home/Dataset/Cifar10/cifar10_val_lmdb"
    batch_size: 100
    backend: LMDB
  }
}
layer {
  name: "conv1"
  type: "Convolution"
  bottom: "data"
  top: "conv1"
  param {
    lr_mult: 1
  }
  param {
    lr_mult: 2
  }
  convolution_param {
    num_output: 32
    pad: 2
    kernel_size: 5
    stride: 1
    weight_filler {
      type: "gaussian"
      std: 0.0001
    }
    bias_filler {
      type: "constant"
    }
  }
  prune_param {
    prune_ratio: 0.464
    prune_ratio_step: 0.464
  }
}
layer {
  name: "pool1"
  type: "Pooling"
  bottom: "conv1"
  top: "pool1"
  pooling_param {
    pool: MAX
    kernel_size: 3
    stride: 2
  }
}
layer {
  name: "relu1"
  type: "ReLU"
  bottom: "pool1"
  top: "pool1"
}
layer {
  name: "norm1"
  type: "LRN"
  bottom: "pool1"
  top: "norm1"
  lrn_param {
    local_size: 3
    alpha: 5e-05
    beta: 0.75
    norm_region: WITHIN_CHANNEL
  }
}
layer {
  name: "conv2"
  type: "Convolution"
  bottom: "norm1"
  top: "conv2"
  param {
    lr_mult: 1
  }
  param {
    lr_mult: 2
  }
  convolution_param {
    num_output: 32
    pad: 2
    kernel_size: 5
    stride: 1
    weight_filler {
      type: "gaussian"
      std: 0.01
    }
    bias_filler {
      type: "constant"
    }
  }
  prune_param {
    prune_ratio: 0.5457
    prune_ratio_step: 0.5457
  }
}
layer {
  name: "relu2"
  type: "ReLU"
  bottom: "conv2"
  top: "conv2"
}
layer {
  name: "pool2"
  type: "Pooling"
  bottom: "conv2"
  top: "pool2"
  pooling_param {
    pool: AVE
    kernel_size: 3
    stride: 2
  }
}
layer {
  name: "norm2"
  type: "LRN"
  bottom: "pool2"
  top: "norm2"
  lrn_param {
    local_size: 3
    alpha: 5e-05
    beta: 0.75
    norm_region: WITHIN_CHANNEL
  }
}
layer {
  name: "conv3"
  type: "Convolution"
  bottom: "norm2"
  top: "conv3"
  convolution_param {
    num_output: 64
    pad: 2
    kernel_size: 5
    stride: 1
    weight_filler {
      type: "gaussian"
      std: 0.01
    }
    bias_filler {
      type: "constant"
    }
  }
  prune_param {
    prune_ratio: 0.4357
    prune_ratio_step: 0.4357
  }
}
layer {
  name: "relu3"
  type: "ReLU"
  bottom: "conv3"
  top: "conv3"
}
layer {
  name: "pool3"
  type: "Pooling"
  bottom: "conv3"
  top: "pool3"
  pooling_param {
    pool: AVE
    kernel_size: 3
    stride: 2
  }
}
layer {
  name: "drop1"
  type: "Dropout"
  bottom: "pool3"
  top: "pool3"
  dropout_param {
    dropout_ratio: 0.1
  }
}
layer {
  name: "ip1"
  type: "InnerProduct"
  bottom: "pool3"
  top: "ip1"
  param {
    lr_mult: 1
    decay_mult: 250
  }
  param {
    lr_mult: 2
    decay_mult: 0
  }
  inner_product_param {
    num_output: 10
    weight_filler {
      type: "gaussian"
      std: 0.01
    }
    bias_filler {
      type: "constant"
    }
  }
}
layer {
  name: "accuracy"
  type: "Accuracy"
  bottom: "ip1"
  bottom: "label"
  top: "accuracy"
  include {
    phase: TEST
  }
}
layer {
  name: "loss"
  type: "SoftmaxWithLoss"
  bottom: "ip1"
  bottom: "label"
  top: "loss"
}
I0830 15:48:09.916445 29406 layer_factory.hpp:77] Creating layer cifar
I0830 15:48:09.916558 29406 net.cpp:107] Creating Layer cifar
I0830 15:48:09.916566 29406 net.cpp:433] cifar -> data
I0830 15:48:09.916574 29406 net.cpp:433] cifar -> label
I0830 15:48:09.916582 29406 data_transformer.cpp:25] Loading mean file from: /home/Dataset/Cifar10/mean.binaryproto-old
I0830 15:48:09.916689 29406 io.cpp:64] Read Proto From Binary File: '/home/Dataset/Cifar10/mean.binaryproto-old', suspend for 2 seconds..
I0830 15:48:09.918423 29420 db_lmdb.cpp:35] Opened lmdb /home/Dataset/Cifar10/cifar10_val_lmdb
I0830 15:48:09.918706 29406 data_layer.cpp:41] output data size: 100,3,32,32
I0830 15:48:09.923668 29406 net.cpp:157] Setting up cifar
I0830 15:48:09.923686 29406 net.cpp:164] Top shape: 100 3 32 32 (307200)
I0830 15:48:09.923693 29406 net.cpp:164] Top shape: 100 (100)
I0830 15:48:09.923697 29406 net.cpp:190] Memory required for data: 1229200
I0830 15:48:09.923702 29406 layer_factory.hpp:77] Creating layer label_cifar_1_split
I0830 15:48:09.923709 29406 net.cpp:107] Creating Layer label_cifar_1_split
I0830 15:48:09.923713 29406 net.cpp:459] label_cifar_1_split <- label
I0830 15:48:09.923719 29406 net.cpp:433] label_cifar_1_split -> label_cifar_1_split_0
I0830 15:48:09.923727 29406 net.cpp:433] label_cifar_1_split -> label_cifar_1_split_1
I0830 15:48:09.923781 29406 net.cpp:157] Setting up label_cifar_1_split
I0830 15:48:09.923789 29406 net.cpp:164] Top shape: 100 (100)
I0830 15:48:09.923794 29406 net.cpp:164] Top shape: 100 (100)
I0830 15:48:09.923797 29406 net.cpp:190] Memory required for data: 1230000
I0830 15:48:09.923800 29406 layer_factory.hpp:77] Creating layer conv1
I0830 15:48:09.923813 29406 net.cpp:107] Creating Layer conv1
I0830 15:48:09.923818 29406 net.cpp:459] conv1 <- data
I0830 15:48:09.923825 29406 net.cpp:433] conv1 -> conv1
I0830 15:48:09.927448 29406 net.cpp:157] Setting up conv1
I0830 15:48:09.927507 29406 net.cpp:164] Top shape: 100 32 32 32 (3276800)
I0830 15:48:09.927520 29406 net.cpp:190] Memory required for data: 14337200
I0830 15:48:09.927549 29406 layer_factory.hpp:77] Creating layer pool1
I0830 15:48:09.927572 29406 net.cpp:107] Creating Layer pool1
I0830 15:48:09.927583 29406 net.cpp:459] pool1 <- conv1
I0830 15:48:09.927597 29406 net.cpp:433] pool1 -> pool1
I0830 15:48:09.927692 29406 net.cpp:157] Setting up pool1
I0830 15:48:09.927707 29406 net.cpp:164] Top shape: 100 32 16 16 (819200)
I0830 15:48:09.927716 29406 net.cpp:190] Memory required for data: 17614000
I0830 15:48:09.927738 29406 layer_factory.hpp:77] Creating layer relu1
I0830 15:48:09.927754 29406 net.cpp:107] Creating Layer relu1
I0830 15:48:09.927768 29406 net.cpp:459] relu1 <- pool1
I0830 15:48:09.927783 29406 net.cpp:420] relu1 -> pool1 (in-place)
I0830 15:48:09.928211 29406 net.cpp:157] Setting up relu1
I0830 15:48:09.928248 29406 net.cpp:164] Top shape: 100 32 16 16 (819200)
I0830 15:48:09.928258 29406 net.cpp:190] Memory required for data: 20890800
I0830 15:48:09.928268 29406 layer_factory.hpp:77] Creating layer norm1
I0830 15:48:09.928287 29406 net.cpp:107] Creating Layer norm1
I0830 15:48:09.928297 29406 net.cpp:459] norm1 <- pool1
I0830 15:48:09.928313 29406 net.cpp:433] norm1 -> norm1
I0830 15:48:09.930661 29406 net.cpp:157] Setting up norm1
I0830 15:48:09.930696 29406 net.cpp:164] Top shape: 100 32 16 16 (819200)
I0830 15:48:09.930711 29406 net.cpp:190] Memory required for data: 24167600
I0830 15:48:09.930721 29406 layer_factory.hpp:77] Creating layer conv2
I0830 15:48:09.930747 29406 net.cpp:107] Creating Layer conv2
I0830 15:48:09.930757 29406 net.cpp:459] conv2 <- norm1
I0830 15:48:09.930773 29406 net.cpp:433] conv2 -> conv2
I0830 15:48:09.935600 29406 net.cpp:157] Setting up conv2
I0830 15:48:09.935636 29406 net.cpp:164] Top shape: 100 32 16 16 (819200)
I0830 15:48:09.935647 29406 net.cpp:190] Memory required for data: 27444400
I0830 15:48:09.935672 29406 layer_factory.hpp:77] Creating layer relu2
I0830 15:48:09.935690 29406 net.cpp:107] Creating Layer relu2
I0830 15:48:09.935701 29406 net.cpp:459] relu2 <- conv2
I0830 15:48:09.935714 29406 net.cpp:420] relu2 -> conv2 (in-place)
I0830 15:48:09.936153 29406 net.cpp:157] Setting up relu2
I0830 15:48:09.936177 29406 net.cpp:164] Top shape: 100 32 16 16 (819200)
I0830 15:48:09.936187 29406 net.cpp:190] Memory required for data: 30721200
I0830 15:48:09.936197 29406 layer_factory.hpp:77] Creating layer pool2
I0830 15:48:09.936218 29406 net.cpp:107] Creating Layer pool2
I0830 15:48:09.936228 29406 net.cpp:459] pool2 <- conv2
I0830 15:48:09.936240 29406 net.cpp:433] pool2 -> pool2
I0830 15:48:09.936673 29406 net.cpp:157] Setting up pool2
I0830 15:48:09.936698 29406 net.cpp:164] Top shape: 100 32 8 8 (204800)
I0830 15:48:09.936707 29406 net.cpp:190] Memory required for data: 31540400
I0830 15:48:09.936717 29406 layer_factory.hpp:77] Creating layer norm2
I0830 15:48:09.936748 29406 net.cpp:107] Creating Layer norm2
I0830 15:48:09.936758 29406 net.cpp:459] norm2 <- pool2
I0830 15:48:09.936770 29406 net.cpp:433] norm2 -> norm2
I0830 15:48:09.938017 29406 net.cpp:157] Setting up norm2
I0830 15:48:09.938051 29406 net.cpp:164] Top shape: 100 32 8 8 (204800)
I0830 15:48:09.938061 29406 net.cpp:190] Memory required for data: 32359600
I0830 15:48:09.938071 29406 layer_factory.hpp:77] Creating layer conv3
I0830 15:48:09.938112 29406 net.cpp:107] Creating Layer conv3
I0830 15:48:09.938122 29406 net.cpp:459] conv3 <- norm2
I0830 15:48:09.938140 29406 net.cpp:433] conv3 -> conv3
I0830 15:48:09.944507 29406 net.cpp:157] Setting up conv3
I0830 15:48:09.944541 29406 net.cpp:164] Top shape: 100 64 8 8 (409600)
I0830 15:48:09.944551 29406 net.cpp:190] Memory required for data: 33998000
I0830 15:48:09.944571 29406 layer_factory.hpp:77] Creating layer relu3
I0830 15:48:09.944589 29406 net.cpp:107] Creating Layer relu3
I0830 15:48:09.944599 29406 net.cpp:459] relu3 <- conv3
I0830 15:48:09.944613 29406 net.cpp:420] relu3 -> conv3 (in-place)
I0830 15:48:09.945001 29406 net.cpp:157] Setting up relu3
I0830 15:48:09.945020 29406 net.cpp:164] Top shape: 100 64 8 8 (409600)
I0830 15:48:09.945029 29406 net.cpp:190] Memory required for data: 35636400
I0830 15:48:09.945037 29406 layer_factory.hpp:77] Creating layer pool3
I0830 15:48:09.945050 29406 net.cpp:107] Creating Layer pool3
I0830 15:48:09.945058 29406 net.cpp:459] pool3 <- conv3
I0830 15:48:09.945072 29406 net.cpp:433] pool3 -> pool3
I0830 15:48:09.945480 29406 net.cpp:157] Setting up pool3
I0830 15:48:09.945499 29406 net.cpp:164] Top shape: 100 64 4 4 (102400)
I0830 15:48:09.945508 29406 net.cpp:190] Memory required for data: 36046000
I0830 15:48:09.945515 29406 layer_factory.hpp:77] Creating layer drop1
I0830 15:48:09.945531 29406 net.cpp:107] Creating Layer drop1
I0830 15:48:09.945539 29406 net.cpp:459] drop1 <- pool3
I0830 15:48:09.945550 29406 net.cpp:420] drop1 -> pool3 (in-place)
I0830 15:48:09.945611 29406 net.cpp:157] Setting up drop1
I0830 15:48:09.945634 29406 net.cpp:164] Top shape: 100 64 4 4 (102400)
I0830 15:48:09.945642 29406 net.cpp:190] Memory required for data: 36455600
I0830 15:48:09.945650 29406 layer_factory.hpp:77] Creating layer ip1
I0830 15:48:09.945667 29406 net.cpp:107] Creating Layer ip1
I0830 15:48:09.945677 29406 net.cpp:459] ip1 <- pool3
I0830 15:48:09.945688 29406 net.cpp:433] ip1 -> ip1
I0830 15:48:09.946818 29406 net.cpp:157] Setting up ip1
I0830 15:48:09.946841 29406 net.cpp:164] Top shape: 100 10 (1000)
I0830 15:48:09.946851 29406 net.cpp:190] Memory required for data: 36459600
I0830 15:48:09.946864 29406 layer_factory.hpp:77] Creating layer ip1_ip1_0_split
I0830 15:48:09.946877 29406 net.cpp:107] Creating Layer ip1_ip1_0_split
I0830 15:48:09.946887 29406 net.cpp:459] ip1_ip1_0_split <- ip1
I0830 15:48:09.946898 29406 net.cpp:433] ip1_ip1_0_split -> ip1_ip1_0_split_0
I0830 15:48:09.946915 29406 net.cpp:433] ip1_ip1_0_split -> ip1_ip1_0_split_1
I0830 15:48:09.946991 29406 net.cpp:157] Setting up ip1_ip1_0_split
I0830 15:48:09.947005 29406 net.cpp:164] Top shape: 100 10 (1000)
I0830 15:48:09.947015 29406 net.cpp:164] Top shape: 100 10 (1000)
I0830 15:48:09.947022 29406 net.cpp:190] Memory required for data: 36467600
I0830 15:48:09.947031 29406 layer_factory.hpp:77] Creating layer accuracy
I0830 15:48:09.947049 29406 net.cpp:107] Creating Layer accuracy
I0830 15:48:09.947058 29406 net.cpp:459] accuracy <- ip1_ip1_0_split_0
I0830 15:48:09.947068 29406 net.cpp:459] accuracy <- label_cifar_1_split_0
I0830 15:48:09.947082 29406 net.cpp:433] accuracy -> accuracy
…
