…
I0830 15:54:48.812525 31238 net.cpp:347] The NetState phase (0) differed from the phase (1) specified by a rule in layer accuracy
I0830 15:54:48.812649 31238 net.cpp:62] Initializing net from parameters: 
name: "CIFAR10_full"
state {
  phase: TRAIN
  level: 0
  stage: ""
}
layer {
  name: "cifar"
  type: "Data"
  top: "data"
  top: "label"
  include {
    phase: TRAIN
  }
  transform_param {
    mean_file: "/home/Dataset/Cifar10/mean.binaryproto-old"
  }
  data_param {
    source: "/home/Dataset/Cifar10/cifar10_train_lmdb"
    batch_size: 32
    backend: LMDB
  }
}
layer {
  name: "conv1"
  type: "Convolution"
  bottom: "data"
  top: "conv1"
  param {
    lr_mult: 1
  }
  param {
    lr_mult: 2
  }
  convolution_param {
    num_output: 32
    pad: 2
    kernel_size: 5
    stride: 1
    weight_filler {
      type: "gaussian"
      std: 0.0001
    }
    bias_filler {
      type: "constant"
    }
  }
  prune_param {
    prune_ratio: 0.464
    prune_ratio_step: 0.464
  }
}
layer {
  name: "pool1"
  type: "Pooling"
  bottom: "conv1"
  top: "pool1"
  pooling_param {
    pool: MAX
    kernel_size: 3
    stride: 2
  }
}
layer {
  name: "relu1"
  type: "ReLU"
  bottom: "pool1"
  top: "pool1"
}
layer {
  name: "norm1"
  type: "LRN"
  bottom: "pool1"
  top: "norm1"
  lrn_param {
    local_size: 3
    alpha: 5e-05
    beta: 0.75
    norm_region: WITHIN_CHANNEL
  }
}
layer {
  name: "conv2"
  type: "Convolution"
  bottom: "norm1"
  top: "conv2"
  param {
    lr_mult: 1
  }
  param {
    lr_mult: 2
  }
  convolution_param {
    num_output: 32
    pad: 2
    kernel_size: 5
    stride: 1
    weight_filler {
      type: "gaussian"
      std: 0.01
    }
    bias_filler {
      type: "constant"
    }
  }
  prune_param {
    prune_ratio: 0.5457
    prune_ratio_step: 0.5457
  }
}
layer {
  name: "relu2"
  type: "ReLU"
  bottom: "conv2"
  top: "conv2"
}
layer {
  name: "pool2"
  type: "Pooling"
  bottom: "conv2"
  top: "pool2"
  pooling_param {
    pool: AVE
    kernel_size: 3
    stride: 2
  }
}
layer {
  name: "norm2"
  type: "LRN"
  bottom: "pool2"
  top: "norm2"
  lrn_param {
    local_size: 3
    alpha: 5e-05
    beta: 0.75
    norm_region: WITHIN_CHANNEL
  }
}
layer {
  name: "conv3"
  type: "Convolution"
  bottom: "norm2"
  top: "conv3"
  convolution_param {
    num_output: 64
    pad: 2
    kernel_size: 5
    stride: 1
    weight_filler {
      type: "gaussian"
      std: 0.01
    }
    bias_filler {
      type: "constant"
    }
  }
  prune_param {
    prune_ratio: 0.4357
    prune_ratio_step: 0.4357
  }
}
layer {
  name: "relu3"
  type: "ReLU"
  bottom: "conv3"
  top: "conv3"
}
layer {
  name: "pool3"
  type: "Pooling"
  bottom: "conv3"
  top: "pool3"
  pooling_param {
    pool: AVE
    kernel_size: 3
    stride: 2
  }
}
layer {
  name: "drop1"
  type: "Dropout"
  bottom: "pool3"
  top: "pool3"
  dropout_param {
    dropout_ratio: 0.1
  }
}
layer {
  name: "ip1"
  type: "InnerProduct"
  bottom: "pool3"
  top: "ip1"
  param {
    lr_mult: 1
    decay_mult: 250
  }
  param {
    lr_mult: 2
    decay_mult: 0
  }
  inner_product_param {
    num_output: 10
    weight_filler {
      type: "gaussian"
      std: 0.01
    }
    bias_filler {
      type: "constant"
    }
  }
}
layer {
  name: "loss"
  type: "SoftmaxWithLoss"
  bottom: "ip1"
  bottom: "label"
  top: "loss"
}
I0830 15:54:48.812758 31238 layer_factory.hpp:77] Creating layer cifar
I0830 15:54:48.813235 31238 net.cpp:107] Creating Layer cifar
I0830 15:54:48.813248 31238 net.cpp:433] cifar -> data
I0830 15:54:48.813277 31238 net.cpp:433] cifar -> label
I0830 15:54:48.813297 31238 data_transformer.cpp:25] Loading mean file from: /home/Dataset/Cifar10/mean.binaryproto-old
I0830 15:54:48.813359 31238 io.cpp:64] Read Proto From Binary File: '/home/Dataset/Cifar10/mean.binaryproto-old', suspend for 2 seconds..
I0830 15:54:48.814662 31251 db_lmdb.cpp:35] Opened lmdb /home/Dataset/Cifar10/cifar10_train_lmdb
I0830 15:54:48.834429 31238 data_layer.cpp:41] output data size: 32,3,32,32
I0830 15:54:48.836179 31238 net.cpp:157] Setting up cifar
I0830 15:54:48.836210 31238 net.cpp:164] Top shape: 32 3 32 32 (98304)
I0830 15:54:48.836220 31238 net.cpp:164] Top shape: 32 (32)
I0830 15:54:48.836223 31238 net.cpp:190] Memory required for data: 393344
I0830 15:54:48.836232 31238 layer_factory.hpp:77] Creating layer conv1
I0830 15:54:48.836261 31238 net.cpp:107] Creating Layer conv1
I0830 15:54:48.836272 31238 net.cpp:459] conv1 <- data
I0830 15:54:48.836285 31238 net.cpp:433] conv1 -> conv1
I0830 15:54:48.837466 31238 layer.cpp:375] New learnable layer registered: conv1. Its layer index: 0
I0830 15:54:48.837524 31238 layer.cpp:403] Pruning setup done: conv1
I0830 15:54:49.480706 31238 net.cpp:157] Setting up conv1
I0830 15:54:49.480754 31238 net.cpp:164] Top shape: 32 32 32 32 (1048576)
I0830 15:54:49.480765 31238 net.cpp:190] Memory required for data: 4587648
I0830 15:54:49.480787 31238 layer_factory.hpp:77] Creating layer pool1
I0830 15:54:49.480803 31238 net.cpp:107] Creating Layer pool1
I0830 15:54:49.480811 31238 net.cpp:459] pool1 <- conv1
I0830 15:54:49.480820 31238 net.cpp:433] pool1 -> pool1
I0830 15:54:49.480890 31238 net.cpp:157] Setting up pool1
I0830 15:54:49.480901 31238 net.cpp:164] Top shape: 32 32 16 16 (262144)
I0830 15:54:49.480906 31238 net.cpp:190] Memory required for data: 5636224
I0830 15:54:49.480911 31238 layer_factory.hpp:77] Creating layer relu1
I0830 15:54:49.480918 31238 net.cpp:107] Creating Layer relu1
I0830 15:54:49.480924 31238 net.cpp:459] relu1 <- pool1
I0830 15:54:49.480931 31238 net.cpp:420] relu1 -> pool1 (in-place)
I0830 15:54:49.481166 31238 net.cpp:157] Setting up relu1
I0830 15:54:49.481178 31238 net.cpp:164] Top shape: 32 32 16 16 (262144)
I0830 15:54:49.481184 31238 net.cpp:190] Memory required for data: 6684800
I0830 15:54:49.481189 31238 layer_factory.hpp:77] Creating layer norm1
I0830 15:54:49.481204 31238 net.cpp:107] Creating Layer norm1
I0830 15:54:49.481210 31238 net.cpp:459] norm1 <- pool1
I0830 15:54:49.481217 31238 net.cpp:433] norm1 -> norm1
I0830 15:54:49.481950 31238 net.cpp:157] Setting up norm1
I0830 15:54:49.481971 31238 net.cpp:164] Top shape: 32 32 16 16 (262144)
I0830 15:54:49.481977 31238 net.cpp:190] Memory required for data: 7733376
I0830 15:54:49.481983 31238 layer_factory.hpp:77] Creating layer conv2
I0830 15:54:49.482000 31238 net.cpp:107] Creating Layer conv2
I0830 15:54:49.482007 31238 net.cpp:459] conv2 <- norm1
I0830 15:54:49.482015 31238 net.cpp:433] conv2 -> conv2
I0830 15:54:49.484915 31238 layer.cpp:375] New learnable layer registered: conv2. Its layer index: 1
I0830 15:54:49.485071 31238 layer.cpp:403] Pruning setup done: conv2
I0830 15:54:49.486230 31238 net.cpp:157] Setting up conv2
I0830 15:54:49.486253 31238 net.cpp:164] Top shape: 32 32 16 16 (262144)
I0830 15:54:49.486259 31238 net.cpp:190] Memory required for data: 8781952
I0830 15:54:49.486277 31238 layer_factory.hpp:77] Creating layer relu2
I0830 15:54:49.486312 31238 net.cpp:107] Creating Layer relu2
I0830 15:54:49.486320 31238 net.cpp:459] relu2 <- conv2
I0830 15:54:49.486327 31238 net.cpp:420] relu2 -> conv2 (in-place)
I0830 15:54:49.486908 31238 net.cpp:157] Setting up relu2
I0830 15:54:49.486927 31238 net.cpp:164] Top shape: 32 32 16 16 (262144)
I0830 15:54:49.486933 31238 net.cpp:190] Memory required for data: 9830528
I0830 15:54:49.486939 31238 layer_factory.hpp:77] Creating layer pool2
I0830 15:54:49.486949 31238 net.cpp:107] Creating Layer pool2
I0830 15:54:49.486954 31238 net.cpp:459] pool2 <- conv2
I0830 15:54:49.486963 31238 net.cpp:433] pool2 -> pool2
I0830 15:54:49.487195 31238 net.cpp:157] Setting up pool2
I0830 15:54:49.487207 31238 net.cpp:164] Top shape: 32 32 8 8 (65536)
I0830 15:54:49.487213 31238 net.cpp:190] Memory required for data: 10092672
I0830 15:54:49.487218 31238 layer_factory.hpp:77] Creating layer norm2
I0830 15:54:49.487231 31238 net.cpp:107] Creating Layer norm2
I0830 15:54:49.487236 31238 net.cpp:459] norm2 <- pool2
I0830 15:54:49.487243 31238 net.cpp:433] norm2 -> norm2
I0830 15:54:49.487565 31238 net.cpp:157] Setting up norm2
I0830 15:54:49.487578 31238 net.cpp:164] Top shape: 32 32 8 8 (65536)
I0830 15:54:49.487584 31238 net.cpp:190] Memory required for data: 10354816
I0830 15:54:49.487589 31238 layer_factory.hpp:77] Creating layer conv3
I0830 15:54:49.487602 31238 net.cpp:107] Creating Layer conv3
I0830 15:54:49.487608 31238 net.cpp:459] conv3 <- norm2
I0830 15:54:49.487617 31238 net.cpp:433] conv3 -> conv3
I0830 15:54:49.490165 31238 layer.cpp:375] New learnable layer registered: conv3. Its layer index: 2
I0830 15:54:49.490397 31238 layer.cpp:403] Pruning setup done: conv3
I0830 15:54:49.491888 31238 net.cpp:157] Setting up conv3
I0830 15:54:49.491909 31238 net.cpp:164] Top shape: 32 64 8 8 (131072)
I0830 15:54:49.491916 31238 net.cpp:190] Memory required for data: 10879104
I0830 15:54:49.491930 31238 layer_factory.hpp:77] Creating layer relu3
I0830 15:54:49.491938 31238 net.cpp:107] Creating Layer relu3
I0830 15:54:49.491945 31238 net.cpp:459] relu3 <- conv3
I0830 15:54:49.491951 31238 net.cpp:420] relu3 -> conv3 (in-place)
I0830 15:54:49.492532 31238 net.cpp:157] Setting up relu3
I0830 15:54:49.492550 31238 net.cpp:164] Top shape: 32 64 8 8 (131072)
I0830 15:54:49.492557 31238 net.cpp:190] Memory required for data: 11403392
I0830 15:54:49.492563 31238 layer_factory.hpp:77] Creating layer pool3
I0830 15:54:49.492573 31238 net.cpp:107] Creating Layer pool3
I0830 15:54:49.492578 31238 net.cpp:459] pool3 <- conv3
I0830 15:54:49.492585 31238 net.cpp:433] pool3 -> pool3
I0830 15:54:49.492817 31238 net.cpp:157] Setting up pool3
I0830 15:54:49.492830 31238 net.cpp:164] Top shape: 32 64 4 4 (32768)
I0830 15:54:49.492835 31238 net.cpp:190] Memory required for data: 11534464
I0830 15:54:49.492841 31238 layer_factory.hpp:77] Creating layer drop1
I0830 15:54:49.492851 31238 net.cpp:107] Creating Layer drop1
I0830 15:54:49.492856 31238 net.cpp:459] drop1 <- pool3
I0830 15:54:49.492862 31238 net.cpp:420] drop1 -> pool3 (in-place)
I0830 15:54:49.492893 31238 net.cpp:157] Setting up drop1
I0830 15:54:49.492902 31238 net.cpp:164] Top shape: 32 64 4 4 (32768)
I0830 15:54:49.492907 31238 net.cpp:190] Memory required for data: 11665536
I0830 15:54:49.492911 31238 layer_factory.hpp:77] Creating layer ip1
I0830 15:54:49.492921 31238 net.cpp:107] Creating Layer ip1
I0830 15:54:49.492926 31238 net.cpp:459] ip1 <- pool3
I0830 15:54:49.492933 31238 net.cpp:433] ip1 -> ip1
I0830 15:54:49.494830 31238 layer.cpp:375] New learnable layer registered: ip1. Its layer index: 3
I0830 15:54:49.495005 31238 layer.cpp:403] Pruning setup done: ip1
I0830 15:54:49.495069 31238 net.cpp:157] Setting up ip1
I0830 15:54:49.495079 31238 net.cpp:164] Top shape: 32 10 (320)
I0830 15:54:49.495085 31238 net.cpp:190] Memory required for data: 11666816
I0830 15:54:49.495095 31238 layer_factory.hpp:77] Creating layer loss
I0830 15:54:49.495110 31238 net.cpp:107] Creating Layer loss
I0830 15:54:49.495116 31238 net.cpp:459] loss <- ip1
I0830 15:54:49.495129 31238 net.cpp:459] loss <- label
I0830 15:54:49.495146 31238 net.cpp:433] loss -> loss
I0830 15:54:49.495163 31238 layer_factory.hpp:77] Creating layer loss
…
I0830 15:54:49.496157 31238 solver.cpp:241] Creating test net (#0) specified by net file: /home2/wanghuan/Scripts/Python/PCA_analysis/MyProject0/train_val.prototxt
I0830 15:54:49.496198 31238 net.cpp:347] The NetState phase (1) differed from the phase (0) specified by a rule in layer cifar
I0830 15:54:49.496357 31238 net.cpp:62] Initializing net from parameters: 
name: "CIFAR10_full"
state {
  phase: TEST
}
layer {
  name: "cifar"
  type: "Data"
  top: "data"
  top: "label"
  include {
    phase: TEST
  }
  transform_param {
    mean_file: "/home/Dataset/Cifar10/mean.binaryproto-old"
  }
  data_param {
    source: "/home/Dataset/Cifar10/cifar10_val_lmdb"
    batch_size: 100
    backend: LMDB
  }
}
layer {
  name: "conv1"
  type: "Convolution"
  bottom: "data"
  top: "conv1"
  param {
    lr_mult: 1
  }
  param {
    lr_mult: 2
  }
  convolution_param {
    num_output: 32
    pad: 2
    kernel_size: 5
    stride: 1
    weight_filler {
      type: "gaussian"
      std: 0.0001
    }
    bias_filler {
      type: "constant"
    }
  }
  prune_param {
    prune_ratio: 0.464
    prune_ratio_step: 0.464
  }
}
layer {
  name: "pool1"
  type: "Pooling"
  bottom: "conv1"
  top: "pool1"
  pooling_param {
    pool: MAX
    kernel_size: 3
    stride: 2
  }
}
layer {
  name: "relu1"
  type: "ReLU"
  bottom: "pool1"
  top: "pool1"
}
layer {
  name: "norm1"
  type: "LRN"
  bottom: "pool1"
  top: "norm1"
  lrn_param {
    local_size: 3
    alpha: 5e-05
    beta: 0.75
    norm_region: WITHIN_CHANNEL
  }
}
layer {
  name: "conv2"
  type: "Convolution"
  bottom: "norm1"
  top: "conv2"
  param {
    lr_mult: 1
  }
  param {
    lr_mult: 2
  }
  convolution_param {
    num_output: 32
    pad: 2
    kernel_size: 5
    stride: 1
    weight_filler {
      type: "gaussian"
      std: 0.01
    }
    bias_filler {
      type: "constant"
    }
  }
  prune_param {
    prune_ratio: 0.5457
    prune_ratio_step: 0.5457
  }
}
layer {
  name: "relu2"
  type: "ReLU"
  bottom: "conv2"
  top: "conv2"
}
layer {
  name: "pool2"
  type: "Pooling"
  bottom: "conv2"
  top: "pool2"
  pooling_param {
    pool: AVE
    kernel_size: 3
    stride: 2
  }
}
layer {
  name: "norm2"
  type: "LRN"
  bottom: "pool2"
  top: "norm2"
  lrn_param {
    local_size: 3
    alpha: 5e-05
    beta: 0.75
    norm_region: WITHIN_CHANNEL
  }
}
layer {
  name: "conv3"
  type: "Convolution"
  bottom: "norm2"
  top: "conv3"
  convolution_param {
    num_output: 64
    pad: 2
    kernel_size: 5
    stride: 1
    weight_filler {
      type: "gaussian"
      std: 0.01
    }
    bias_filler {
      type: "constant"
    }
  }
  prune_param {
    prune_ratio: 0.4357
    prune_ratio_step: 0.4357
  }
}
layer {
  name: "relu3"
  type: "ReLU"
  bottom: "conv3"
  top: "conv3"
}
layer {
  name: "pool3"
  type: "Pooling"
  bottom: "conv3"
  top: "pool3"
  pooling_param {
    pool: AVE
    kernel_size: 3
    stride: 2
  }
}
layer {
  name: "drop1"
  type: "Dropout"
  bottom: "pool3"
  top: "pool3"
  dropout_param {
    dropout_ratio: 0.1
  }
}
layer {
  name: "ip1"
  type: "InnerProduct"
  bottom: "pool3"
  top: "ip1"
  param {
    lr_mult: 1
    decay_mult: 250
  }
  param {
    lr_mult: 2
    decay_mult: 0
  }
  inner_product_param {
    num_output: 10
    weight_filler {
      type: "gaussian"
      std: 0.01
    }
    bias_filler {
      type: "constant"
    }
  }
}
layer {
  name: "accuracy"
  type: "Accuracy"
  bottom: "ip1"
  bottom: "label"
  top: "accuracy"
  include {
    phase: TEST
  }
}
layer {
  name: "loss"
  type: "SoftmaxWithLoss"
  bottom: "ip1"
  bottom: "label"
  top: "loss"
}
I0830 15:54:49.496465 31238 layer_factory.hpp:77] Creating layer cifar
I0830 15:54:49.496592 31238 net.cpp:107] Creating Layer cifar
I0830 15:54:49.496603 31238 net.cpp:433] cifar -> data
I0830 15:54:49.496614 31238 net.cpp:433] cifar -> label
I0830 15:54:49.496625 31238 data_transformer.cpp:25] Loading mean file from: /home/Dataset/Cifar10/mean.binaryproto-old
I0830 15:54:49.496667 31238 io.cpp:64] Read Proto From Binary File: '/home/Dataset/Cifar10/mean.binaryproto-old', suspend for 2 seconds..
I0830 15:54:49.498332 31262 db_lmdb.cpp:35] Opened lmdb /home/Dataset/Cifar10/cifar10_val_lmdb
I0830 15:54:49.498566 31238 data_layer.cpp:41] output data size: 100,3,32,32
I0830 15:54:49.504954 31238 net.cpp:157] Setting up cifar
I0830 15:54:49.504979 31238 net.cpp:164] Top shape: 100 3 32 32 (307200)
I0830 15:54:49.504988 31238 net.cpp:164] Top shape: 100 (100)
I0830 15:54:49.504993 31238 net.cpp:190] Memory required for data: 1229200
I0830 15:54:49.505000 31238 layer_factory.hpp:77] Creating layer label_cifar_1_split
I0830 15:54:49.505010 31238 net.cpp:107] Creating Layer label_cifar_1_split
I0830 15:54:49.505017 31238 net.cpp:459] label_cifar_1_split <- label
I0830 15:54:49.505025 31238 net.cpp:433] label_cifar_1_split -> label_cifar_1_split_0
I0830 15:54:49.505036 31238 net.cpp:433] label_cifar_1_split -> label_cifar_1_split_1
I0830 15:54:49.505347 31238 net.cpp:157] Setting up label_cifar_1_split
I0830 15:54:49.505393 31238 net.cpp:164] Top shape: 100 (100)
I0830 15:54:49.505405 31238 net.cpp:164] Top shape: 100 (100)
I0830 15:54:49.505414 31238 net.cpp:190] Memory required for data: 1230000
I0830 15:54:49.505426 31238 layer_factory.hpp:77] Creating layer conv1
I0830 15:54:49.505460 31238 net.cpp:107] Creating Layer conv1
I0830 15:54:49.505470 31238 net.cpp:459] conv1 <- data
I0830 15:54:49.505487 31238 net.cpp:433] conv1 -> conv1
I0830 15:54:49.508931 31238 net.cpp:157] Setting up conv1
I0830 15:54:49.508972 31238 net.cpp:164] Top shape: 100 32 32 32 (3276800)
I0830 15:54:49.508990 31238 net.cpp:190] Memory required for data: 14337200
I0830 15:54:49.509013 31238 layer_factory.hpp:77] Creating layer pool1
I0830 15:54:49.509038 31238 net.cpp:107] Creating Layer pool1
I0830 15:54:49.509048 31238 net.cpp:459] pool1 <- conv1
I0830 15:54:49.509063 31238 net.cpp:433] pool1 -> pool1
I0830 15:54:49.509155 31238 net.cpp:157] Setting up pool1
I0830 15:54:49.509171 31238 net.cpp:164] Top shape: 100 32 16 16 (819200)
I0830 15:54:49.509181 31238 net.cpp:190] Memory required for data: 17614000
I0830 15:54:49.509189 31238 layer_factory.hpp:77] Creating layer relu1
I0830 15:54:49.509205 31238 net.cpp:107] Creating Layer relu1
I0830 15:54:49.509214 31238 net.cpp:459] relu1 <- pool1
I0830 15:54:49.509227 31238 net.cpp:420] relu1 -> pool1 (in-place)
I0830 15:54:49.509652 31238 net.cpp:157] Setting up relu1
I0830 15:54:49.509687 31238 net.cpp:164] Top shape: 100 32 16 16 (819200)
I0830 15:54:49.509697 31238 net.cpp:190] Memory required for data: 20890800
I0830 15:54:49.509708 31238 layer_factory.hpp:77] Creating layer norm1
I0830 15:54:49.509727 31238 net.cpp:107] Creating Layer norm1
I0830 15:54:49.509749 31238 net.cpp:459] norm1 <- pool1
I0830 15:54:49.509763 31238 net.cpp:433] norm1 -> norm1
I0830 15:54:49.512501 31238 net.cpp:157] Setting up norm1
I0830 15:54:49.512542 31238 net.cpp:164] Top shape: 100 32 16 16 (819200)
I0830 15:54:49.512559 31238 net.cpp:190] Memory required for data: 24167600
I0830 15:54:49.512569 31238 layer_factory.hpp:77] Creating layer conv2
I0830 15:54:49.512595 31238 net.cpp:107] Creating Layer conv2
I0830 15:54:49.512606 31238 net.cpp:459] conv2 <- norm1
I0830 15:54:49.512625 31238 net.cpp:433] conv2 -> conv2
I0830 15:54:49.517534 31238 net.cpp:157] Setting up conv2
I0830 15:54:49.517572 31238 net.cpp:164] Top shape: 100 32 16 16 (819200)
I0830 15:54:49.517585 31238 net.cpp:190] Memory required for data: 27444400
I0830 15:54:49.517606 31238 layer_factory.hpp:77] Creating layer relu2
I0830 15:54:49.517642 31238 net.cpp:107] Creating Layer relu2
I0830 15:54:49.517659 31238 net.cpp:459] relu2 <- conv2
I0830 15:54:49.517673 31238 net.cpp:420] relu2 -> conv2 (in-place)
I0830 15:54:49.518157 31238 net.cpp:157] Setting up relu2
I0830 15:54:49.518196 31238 net.cpp:164] Top shape: 100 32 16 16 (819200)
I0830 15:54:49.518205 31238 net.cpp:190] Memory required for data: 30721200
I0830 15:54:49.518215 31238 layer_factory.hpp:77] Creating layer pool2
I0830 15:54:49.518240 31238 net.cpp:107] Creating Layer pool2
I0830 15:54:49.518254 31238 net.cpp:459] pool2 <- conv2
I0830 15:54:49.518265 31238 net.cpp:433] pool2 -> pool2
I0830 15:54:49.518704 31238 net.cpp:157] Setting up pool2
I0830 15:54:49.518726 31238 net.cpp:164] Top shape: 100 32 8 8 (204800)
I0830 15:54:49.518735 31238 net.cpp:190] Memory required for data: 31540400
I0830 15:54:49.518743 31238 layer_factory.hpp:77] Creating layer norm2
I0830 15:54:49.518761 31238 net.cpp:107] Creating Layer norm2
I0830 15:54:49.518774 31238 net.cpp:459] norm2 <- pool2
I0830 15:54:49.518784 31238 net.cpp:433] norm2 -> norm2
I0830 15:54:49.520009 31238 net.cpp:157] Setting up norm2
I0830 15:54:49.520040 31238 net.cpp:164] Top shape: 100 32 8 8 (204800)
I0830 15:54:49.520051 31238 net.cpp:190] Memory required for data: 32359600
I0830 15:54:49.520061 31238 layer_factory.hpp:77] Creating layer conv3
I0830 15:54:49.520084 31238 net.cpp:107] Creating Layer conv3
I0830 15:54:49.520094 31238 net.cpp:459] conv3 <- norm2
I0830 15:54:49.520112 31238 net.cpp:433] conv3 -> conv3
I0830 15:54:49.526365 31238 net.cpp:157] Setting up conv3
I0830 15:54:49.526397 31238 net.cpp:164] Top shape: 100 64 8 8 (409600)
I0830 15:54:49.526407 31238 net.cpp:190] Memory required for data: 33998000
I0830 15:54:49.526428 31238 layer_factory.hpp:77] Creating layer relu3
I0830 15:54:49.526445 31238 net.cpp:107] Creating Layer relu3
I0830 15:54:49.526454 31238 net.cpp:459] relu3 <- conv3
I0830 15:54:49.526465 31238 net.cpp:420] relu3 -> conv3 (in-place)
I0830 15:54:49.526851 31238 net.cpp:157] Setting up relu3
I0830 15:54:49.526870 31238 net.cpp:164] Top shape: 100 64 8 8 (409600)
I0830 15:54:49.526878 31238 net.cpp:190] Memory required for data: 35636400
I0830 15:54:49.526886 31238 layer_factory.hpp:77] Creating layer pool3
I0830 15:54:49.526899 31238 net.cpp:107] Creating Layer pool3
I0830 15:54:49.526908 31238 net.cpp:459] pool3 <- conv3
I0830 15:54:49.526921 31238 net.cpp:433] pool3 -> pool3
I0830 15:54:49.527325 31238 net.cpp:157] Setting up pool3
I0830 15:54:49.527345 31238 net.cpp:164] Top shape: 100 64 4 4 (102400)
I0830 15:54:49.527354 31238 net.cpp:190] Memory required for data: 36046000
I0830 15:54:49.527361 31238 layer_factory.hpp:77] Creating layer drop1
I0830 15:54:49.527377 31238 net.cpp:107] Creating Layer drop1
I0830 15:54:49.527386 31238 net.cpp:459] drop1 <- pool3
I0830 15:54:49.527396 31238 net.cpp:420] drop1 -> pool3 (in-place)
I0830 15:54:49.527454 31238 net.cpp:157] Setting up drop1
I0830 15:54:49.527482 31238 net.cpp:164] Top shape: 100 64 4 4 (102400)
I0830 15:54:49.527489 31238 net.cpp:190] Memory required for data: 36455600
I0830 15:54:49.527498 31238 layer_factory.hpp:77] Creating layer ip1
I0830 15:54:49.527511 31238 net.cpp:107] Creating Layer ip1
I0830 15:54:49.527519 31238 net.cpp:459] ip1 <- pool3
I0830 15:54:49.527545 31238 net.cpp:433] ip1 -> ip1
I0830 15:54:49.528664 31238 net.cpp:157] Setting up ip1
I0830 15:54:49.528687 31238 net.cpp:164] Top shape: 100 10 (1000)
I0830 15:54:49.528695 31238 net.cpp:190] Memory required for data: 36459600
I0830 15:54:49.528708 31238 layer_factory.hpp:77] Creating layer ip1_ip1_0_split
I0830 15:54:49.528722 31238 net.cpp:107] Creating Layer ip1_ip1_0_split
I0830 15:54:49.528729 31238 net.cpp:459] ip1_ip1_0_split <- ip1
I0830 15:54:49.528741 31238 net.cpp:433] ip1_ip1_0_split -> ip1_ip1_0_split_0
I0830 15:54:49.528755 31238 net.cpp:433] ip1_ip1_0_split -> ip1_ip1_0_split_1
I0830 15:54:49.528833 31238 net.cpp:157] Setting up ip1_ip1_0_split
I0830 15:54:49.528846 31238 net.cpp:164] Top shape: 100 10 (1000)
I0830 15:54:49.528856 31238 net.cpp:164] Top shape: 100 10 (1000)
I0830 15:54:49.528863 31238 net.cpp:190] Memory required for data: 36467600
I0830 15:54:49.528872 31238 layer_factory.hpp:77] Creating layer accuracy
I0830 15:54:49.528899 31238 net.cpp:107] Creating Layer accuracy
I0830 15:54:49.528909 31238 net.cpp:459] accuracy <- ip1_ip1_0_split_0
I0830 15:54:49.528918 31238 net.cpp:459] accuracy <- label_cifar_1_split_0
I0830 15:54:49.528933 31238 net.cpp:433] accuracy -> accuracy
…
